book/model.pkl (torch, 5395 bytes, 4 tensors)

net.0.weight f4 [128, 4]
00000000: 30e8 fabe c793 2c3e a71b 153f 1f5c adbe
00000010: 18c3 93be 5e96 04be f1b1 f33e 1dfb 153f
00000020: a190 a03e 7ddb ad3e 4cff d4be a65e bfbe
00000030: d77a 58be 0636 3f3e 8bd6 d6be 1303 ddbe
00000040: 2f17 febe d975 dd3e 90d6 6e3e 7430 283f
00000050: 5f4e 873d 545f dc3e 601d a5be 1d04 c73e
00000060: 8b57 223d eaf4 c4be 8af4 89be b577 31bf
00000070: 72ee 8abe aa6e 863d 61da 1fbf 6203 03bf
00000080: 1792 7d3e 81ec 093c d15f 373f bc82 82bd
00000090: e58f 9f3d 02e9 c43e 9845 5fbe f88e 78be
000000a0: 2b16 a5bd 626f 2d3d 7edf 48bf 2362 adbd
000000b0: 3387 6a3e 8257 ea3d 9226 553f 1285 a93e
000000c0: 8095 7d3d ec2d ad3e 0ce7 2d3f 4122 c93d
000000d0: df51 65be 0847 35bd cfad aabe 5bd0 ae3e
000000e0: 69f5 b4be c83f c2be f7e7 19bf 17c0 02bd
000000f0: db85 8abc b6a9 48be c0a3 92be 8b67 da3e
00000100: df13 a3be 0951 b6be 3f17 aabd 3404 d03e
00000110: d66c 3dbd ef05 1e3e 6a54 f53e 9bef e93e
00000120: 68a1 0fbe af08 e43d 38f9 be3e a2aa 853e
00000130: e205 763e 47f6 2a3e cb4c 203f 0b1b 1cbd
00000140: c0c6 8e3c 66b5 d0be 8201 cbbe 5810 cfbd
00000150: 1234 98be 28bd ff3e 3526 303d c022 c13e
00000160: b88b 173e 97de dd3e 34a2 fb3d bfdb f33e
00000170: db56 4c3e d6cf 993e 69c5 a9bd e6b1 d83e
00000180: 6134 c0bd dd7f ec3b c988 26be fa03 11bf
00000190: 63b7 c0be b181 2d3e 8658 b53e 5d12 3e3e
000001a0: 5a3e e03e 66dc cebd 5b82 c6be 97da 60be
000001b0: 51bd a13e 82f3 e0be a529 b13e 840d 0abe
000001c0: fbf3 35be b322 02bf 9b5f e4be c22f a53e
000001d0: 559a dc3e b870 b23e 877a cc3e 5812 353e
000001e0: b99c a9be eeed dbbe 0f1b 9a3d dba0 a9be
000001f0: 4d71 a23d 44ec 5dbe f69d 13bf 2c02 c1be
00000200: 6480 2a3e 26a6 7cbe 0159 233d 4f3f c33e
00000210: 555b dfbe 770d d63e e7ca babe 5f67 29bf
00000220: dbb7 b2bd 5b1c 9dbe e519 d53c bd5f c0be
00000230: cdc9 ad3d eaf1 6b3e 56e8 c73e 89ce 02bd
00000240: cf49 353e 5600 983e 085a 1dbf 85c7 edbe
00000250: e2fd 42be 3522 c8be 6e33 08be e270 d8be
00000260: b9aa 113c cf73 393e 7436 5fbf d36c 2ebf
00000270: 3725 76be 1f19 92ba 6d48 e5be 722f 693e
00000280: 70fb d2be 9605 d7be d54a 243e a738 03bf
00000290: dddc 1abe 2831 e43e c73d 993c be87 cbbe
000002a0: f44a 3a3e 897b f2be 1b91 12bf 13bf 6a3e
000002b0: abeb 853e d122 83be 5271 58bf c233 a7be
000002c0: 1d90 9dbe 4d0d df3e 2b77 153d c566 9b3e
000002d0: 0eba e53e 0e7c 5a3e 4d9f 0e3f 0534 903e
000002e0: 600f 8fbe 4083 e0be 6d04 393f 0cdc 8e3e
000002f0: 3819 c8be f6f5 cdbe 0883 4ebf 3667 08bf
00000300: cee3 823e 6f8f 00bd 9591 3e3d 97cc dabe
00000310: 0cc5 a33e b54f cdbe da6e 47bd bb35 2ebf
00000320: 3ee2 debe d6ac a53e a812 6abe 2ff9 1fbf
00000330: fec0 23be c8c2 73be 0e21 4ebf ff1c 21bf
00000340: 887b 873e bec5 d6be 056c 543f 6db6 9a3e
00000350: 93c3 f03d 8605 353e c282 543e e783 103f
00000360: a282 aa3e bc05 ce3c 3a01 36be 07ef 6b3e
00000370: 1637 0b3e 024c af3d 5de4 b93d 820f 05bf
00000380: 11f7 9b3e 0139 edbe 3fe6 0bbd 9db7 f9be
00000390: 19f3 e1bd 815f a23e a9b2 0e3f 25d5 153f
000003a0: 67a7 a4be f2a8 c5bd ec1c 12be cfc4 033e
000003b0: fd2a 9ebe 12ac 9c3e 28d2 15be ecc0 c83e
000003c0: d88c 80be 4d09 d5bd df74 82bd f4cb ab3e
000003d0: 08ce 773d 86b1 bbbe a6d3 5a3e 573e 9c3e
000003e0: 419e aa3e ff05 263e fdfe 833c b6d7 0e3f
000003f0: d6ea aa3e b8a5 12bf 205c abbe fe46 13bf
-0.4900527 0.16853248 0.5824532 -0.33859345 -0.28859782 -0.12947986 0.47596696 0.58586293
0.31360343 0.3395652 -0.41601026 -0.373769 -0.2114061 0.18672952 -0.41960558 -0.43166408
-0.49627063 0.43253973 0.23324037 0.65698934 0.06606745 0.4304148 -0.32248974 0.38870326
0.03963427 -0.38468105 -0.2694438 -0.69323283 -0.27135044 0.06564076 -0.62442595 -0.51177037
0.2476276 0.008418203 0.7163058 -0.06372592 0.077911176 0.3845902 -0.21803892 -0.24273288
-0.08060869 0.04234255 -0.7846602 -0.08465984 0.22903137 0.11442472 0.8326198 0.33109337
0.061910152 0.33824098 0.67930675 0.098209865 -0.22394513 -0.044257194 -0.3333573 0.34143338
-0.35343483 -0.37939286 -0.60119575 -0.031921472 -0.01690953 -0.1959599 -0.28640556 0.42657122
-0.31851098 -0.356087 -0.08305215 0.40628207 -0.046246372 0.15431951 0.47915965 0.45690617
-0.14026415 0.11134469 0.37299514 0.26106745 0.24025682 0.1669551 0.62617177 -0.038111728
0.017428756 -0.40763396 -0.39649588 -0.10110539 -0.29727226 0.49949002 0.043005187 0.37721825
0.14799392 0.43333885 0.12286797 0.4762859 0.19955008 0.3004138 -0.08289606 0.42323226
-0.093849905 0.007217391 -0.16263117 -0.5664669 -0.37639913 0.16944005 0.354191 0.18561693
0.4379757 -0.101006314 -0.38771328 -0.21958385 0.3158975 -0.43935782 0.34602085 -0.13481718
-0.17768852 -0.50834197 -0.4460419 0.32263 0.43086496 0.34851623 0.3993723 0.17682779
-0.33127382 -0.42954963 0.07524692 -0.33130535 0.07931767 -0.2167216 -0.57662904 -0.3769697
0.1665054 -0.24672756 0.039879803 0.38134238 -0.43624368 0.41807148 -0.36482927 -0.66173357
-0.08726474 -0.30685696 0.026013324 -0.37573043 0.08485756 0.23041502 0.39044446 -0.03193525
0.17703937 0.29687756 -0.614655 -0.46441284 -0.19042161 -0.39088598 -0.13300869 -0.42273623
0.008890801 0.18110584 -0.87192464 -0.681348 -0.24037634 -0.0011146403 -0.4478182 0.22772005
-0.41207457 -0.4199645 0.16044171 -0.5125832 -0.15123315 0.44568753 0.018706216 -0.39752
0.18192655 -0.47359875 -0.57252663 0.22924452 0.26156363 -0.256125 -0.84547913 -0.32656676
-0.30774012 0.43564835 0.0364906 0.30351844 0.4486851 0.21336386 0.55711824 0.28164688
-0.27941418 -0.43850136 0.7227238 0.27902257 -0.3908174 -0.40226716 -0.8066869 -0.5328249
0.25564426 -0.03138679 0.046525557 -0.42734215 0.31986272 -0.40099874 -0.0486897 -0.68050736
-0.43531984 0.32358426 -0.2285868 -0.624896 -0.1599159 -0.23804772 -0.8051919 -0.6293487
0.26461434 -0.4194774 0.82977325 0.30217305 0.11756053 0.17677888 0.20753005 0.56451267
0.3330279 0.025149219 -0.17773905 0.230404 0.13595232 0.08559419 0.0907676 -0.5197679
0.30461934 -0.46332553 -0.034155127 -0.48772898 -0.11032695 0.3171349 0.55741364 0.5852836
-0.32158968 -0.096513644 -0.14268845 0.12868045 -0.30892172 0.3060003 -0.1463095 0.39209688
-0.25107455 -0.104021646 -0.06369948 0.3355404 0.06049922 -0.36658877 0.213698 0.30516312
0.33323863 0.16213225 0.016112799 0.557979 0.3338229 -0.57284117 -0.33468723 -0.575302

net.0.bias f4 [128]
00000000: d093 debe fd44 993e 8e24 bdbe 52ce d5be
00000010: 8934 aa3e b85b abbd 7e88 b23e 54a8 783e
00000020: bf7a 983e 2c8f f9bc ca52 fa3d c150 d03e
00000030: 16b3 bc3e 9508 90be 6892 82be f6ea ec3c
00000040: e158 f3be 030d 483e 5065 e83e 9c9a 7b3e
00000050: e4e4 99bd 5c45 c53e 057a 8e3e 7986 efbd
00000060: f581 203d dae9 71be 3382 28be 081f bfbe
00000070: 333e a7be 2028 023e 2c99 12bd d960 2c3e
00000080: d0f5 793e 9035 4d3e cfcf dd3e bfa6 edbe
00000090: c76f a3be 6984 c33e 3fe0 b33e e071 b43e
000000a0: 5db3 27be 0686 dcbd 523c 973e 5789 df3e
000000b0: a4cb e5be 63e4 f53e f8ee f0be 2e69 77bd
000000c0: 0a67 e4be 907f 533e 4ac7 a0bd a464 9f3e
000000d0: 861e 8b3e e6c5 063f 510f 293e cbfd 073e
000000e0: 13f3 8a3e 1a79 f13e e857 dabe 8bf8 00bf
000000f0: 13f1 d2be 86a8 823e 1981 d73e f2a4 0f3e
00000100: 8b83 b6be ce1a e5be 0a35 d3be 60df 6a3e
00000110: 605c 403d def7 703e 645a 483e c2be 5abe
00000120: e802 edbd 4b00 403d e9ec e1be d613 0c3e
00000130: 61f8 973e 247b 933e e13c a6be d86c d73d
00000140: ed44 76be ec9a 103e eb75 f1be c6fe e7be
00000150: 32d0 673e 83d2 aebe 3b87 c3be 48d5 a8bd
00000160: b433 4ebe 176e e2be 7df8 983d 4833 adbe
00000170: cb20 7f3e a5c8 c03e c75a bf3e 4b6f d2bd
00000180: f172 2fbe 986d 66be fc89 86be def5 983e
00000190: 0f47 4ebc c6e1 d1be 919a 483e e187 01bf
000001a0: 2f9f 9dbc 949c c3bd 1f99 973e c646 febe
000001b0: 798d 7c3e 376d 163e 4437 d03e f0be 5cbe
000001c0: 1c02 a3bd d08a d0bd c155 e2be f378 c1bd
000001d0: e66c 8a3d 62fa ae3e 7752 4fbe f96d c33d
000001e0: 3971 8d3e 835d 933e 79f5 d23e e4fb 2ebe
000001f0: 8986 c23e e08d 953e 7a0b d7bd 3919 c5be
-0.43472147 0.29935446 -0.36941952 -0.41758972 0.33243206 -0.08367103 0.3486976 0.24282962
0.29781148 -0.030463777 0.12222822 0.4068661 0.36855382 -0.28131548 -0.25502324 0.028920632
-0.47528747 0.19536214 0.45389795 0.24570698 -0.075143605 0.3852948 0.2782747 -0.116955705
0.039186437 -0.23624364 -0.16455917 -0.37328362 -0.32664642 0.12710619 -0.035790607 0.1683382
0.24410176 0.20039964 0.43322608 -0.4641628 -0.31921217 0.38186958 0.35132024 0.3524313
-0.16377015 -0.107677504 0.29538208 0.4365947 -0.44881928 0.48025808 -0.4705732 -0.06040304
-0.44609863 0.2065413 -0.07850511 0.3113147 0.27171725 0.5264572 0.16509749 0.13280408
0.27138576 0.47162706 -0.42645192 -0.50379246 -0.4119955 0.25519198 0.4209068 0.14027765
-0.35647234 -0.44747013 -0.41251403 0.22936773 0.046963096 0.23532054 0.19565731 -0.21361831
-0.1157282 0.04687528 -0.4412606 0.13679442 0.29681686 0.28804886 -0.32468322 0.10518807
-0.2404973 0.14121598 -0.47160277 -0.45311564 0.22638014 -0.34144983 -0.3818911 -0.08243805
-0.2013691 -0.44224617 0.074692704 -0.33828187 0.24914853 0.3765308 0.37373945 -0.10275134
-0.1713369 -0.22502744 -0.2627715 0.29875082 -0.012590184 -0.40992564 0.19590212 -0.5059796
-0.019240944 -0.09551349 0.2960901 -0.4966337 0.24663343 0.146901 0.40667164 -0.21557212
-0.07959387 -0.101827264 -0.4420605 -0.09446897 0.06759052 0.34175402 -0.20246302 0.0954246
0.27625445 0.2878228 0.41202906 -0.17088276 0.37993267 0.29209805 -0.10500236 -0.38495806

net.2.weight f4 [2, 128]
00000000: 78b3 41bd 7de3 5abc 0339 bd3d ca77 c73c
00000010: b63d 20be c436 49bd a2b3 3a3e 537b 213e
00000020: 41b0 08be 467e 0c3d 165c a53d 22e9 e8bd
00000030: bfdb 07be 208e ea3c a240 703d e020 34bd
00000040: 64a7 8ebd 00ba 06be 79b4 15bd a686 8cbc
00000050: 66e2 f03d 8aff 51bd ef26 4dbe c544 9ebc
00000060: ba57 273e f02d bebd 9572 723d 36be bdbc
00000070: ef82 a03d df28 0abd 0d53 e03d c97c 7e3e
00000080: 2af8 bbbc daa6 a83d 526a 0d3d d40b bf3c
00000090: 52ee 533d cd5e df3d 7f90 5c3d 29e5 d43c
000000a0: 44db cb3d b4c1 f4bb c5e4 6bbc 7f27 cc3d
000000b0: 346d 1a3d f750 e2bd d8cd b3bd c1d2 d13d
000000c0: baf7 023d 7631 5c3e 5c13 fb3d 739c 7f3e
000000d0: ef8d 1bbe 140d 85bd e3ca f1bd 89ea 293d
000000e0: 30e3 bc3c df81 60be 3965 86bd e016 0cbc
000000f0: f459 b9bd 7c28 dd3c 0cda 42be 7ac5 e43d
00000100: f5a3 853d 86bb 593c fc88 813c cfb8 30be
00000110: dce4 f7bc d2ea 38be 82f0 1ebe 0a9b bebc
00000120: 61d6 a5bd cfa1 b03d c4f1 0cbd 1ec5 153c
00000130: d351 bf3d b083 2fbe 95c7 473d 5d52 df3d
00000140: 8ace 34bc f5cd b3bd 297e 50bc 3534 293d
00000150: bd3b e3bd 9e0c 9d3d 5a1e 223d 052d 993d
00000160: 6130 c1bd c886 823d 85f2 a63d 0321 33be
00000170: 768f d23c 982f a43c 0fd8 fa3d 275b 36bc
00000180: efef c0bd e002 233d fa87 ec3c 721f 233e
00000190: 6c77 293d 7cb1 37bd 7759 c0bb 4bf3 1cbd
000001a0: 052f 89bd 04a8 813e 3e42 a53d e201 fdbc
000001b0: 7833 1cbe bd74 5f3d 6647 23bd 73b9 d7bd
000001c0: 5cf0 973d 3400 b53b a30c 8e3d bf3a 333d
000001d0: b454 2b3d d317 3dbe 2cc5 d4bc 8991 11bd
000001e0: fa60 953d 8484 80bd c54b 073e 5e31 fbbd
000001f0: 8a02 813e 93d5 103e 83c1 a23d 4b92 4fbc
00000200: cf59 723d ce24 a33d da69 11bd cc99 c3bc
00000210: f1bd 213e 9945 8a3b 6a3d 46be 3b93 2bbe
00000220: 4244 003d 545d 30bd 1713 03be e72b 093e
00000230: 3efd 023e 10d4 27bd 484f 8ebd 6b2f 42bd
00000240: 6a8c 423b 3559 7a3e a0d2 4d3d 5d0c ad3d
00000250: e5b8 ecbd 771d 7c3d 58de 653e 0d5e 1d3e
00000260: 84b9 3ebe 7938 27bc b1a2 fb3c 3265 3e3d
00000270: 8784 b4bd 43e0 0c3e f889 65bd b2ef 43be
00000280: feb0 b03c e803 a4bd 522c 073c 9371 663d
00000290: 9415 acbd 0d4e 95bd 9b32 49be c53d 88bc
000002a0: f7f0 afbd b993 1fbc da4d 82bd 5389 56bd
000002b0: ef9e 53bd 3aac 813d 1b48 9c3d e1cc 22be
000002c0: 964c 263d 4d1b a8bd cf7e 94bd beba 41be
000002d0: 621f 0d3e d384 0a3e f526 44bc 853f 8ebc
000002e0: 907c 99bd 6551 493e 5d27 9fbd 48ff 73bd
000002f0: 5bcd 9cbd 00c1 073d 22a7 463e 9587 73be
00000300: 0133 1abd 88f7 763d a0c6 0c3d 1538 9d3d
00000310: 1927 0e3e 983f 4b3e de2b 153e d8a2 2a3d
00000320: 2585 353c d782 5fbd 0dbf 4d3c f9a5 763d
00000330: 5ede 4ebe c011 333e 8abd 273d 814b 6fbd
00000340: 895a 2f3e f3c0 323c 68f0 5c3d f7a0 323d
00000350: 2c85 1abc d91f a2bd 9654 563d 67d5 2cbe
00000360: 79dd 1abd 43b2 1ebd 654d 203d 4877 cd3d
00000370: 3268 323d ed56 ecbb 06ee 09be ed9a bd3d
00000380: 68d9 973b 8b45 cd3d d98d 85bd ee64 60be
00000390: 4647 aabc 4686 9dbd 9f68 c7bc 6e28 dabc
000003a0: 1bb4 80bc a8dc 85be 6169 8cbd bf0d 2c3d
000003b0: 4fac 593e 35a6 12bd c23a c73d 2516 12bd
000003c0: 388e 44bd 1e92 f03b 7d82 f63c e370 b83d
000003d0: 73d7 0b3d c076 993d e972 333d ac62 2f3e
000003e0: 0b09 80bd 2b7b cf3c 16c0 18be cd9d ca3c
000003f0: 9407 45be 1207 c0bd d096 d9bd e14d bf3d
-0.047290295 -0.0133599015 0.0923939 0.024349112 -0.15648541 -0.049124494 0.18232587 0.157697
-0.13348486 0.03430011 0.080742046 -0.113725916 -0.1326742 0.028632224 0.05865539 -0.043976665
-0.06965521 -0.13156891 -0.036549065 -0.01715405 0.11761932 -0.05126909 -0.20034383 -0.019319901
0.16342059 -0.09286106 0.059191305 -0.023161989 0.078374736 -0.033730384 0.10953341 0.2485229
-0.022945482 0.082349494 0.034525223 0.02332107 0.05174095 0.10906754 0.05384874 0.025988178
0.09953931 -0.0074693803 -0.014397805 0.09968471 0.0377018 -0.11050599 -0.08779496 0.10245276
0.03197453 0.21503243 0.12259552 0.24962024 -0.15190862 -0.06496635 -0.11806276 0.041483436
0.02305755 -0.21924542 -0.065622754 -0.008550376 -0.0905036 0.026996844 -0.19028491 0.11170478
0.06525413 0.013289338 0.01581239 -0.17257999 -0.030260496 -0.18058327 -0.15521434 -0.023267288
-0.0809753 0.086246125 -0.034410253 0.009141235 0.093417786 -0.17140079 0.04877432 0.109043814
-0.011035571 -0.087795176 -0.012725391 0.041309554 -0.110953785 0.07668422 0.039579727 0.0747929
-0.09433056 0.06373364 0.08151726 -0.17493062 0.025703173 0.020042226 0.12248241 -0.011130131
-0.09420764 0.039797664 0.028873432 0.15929964 0.041373655 -0.044846997 -0.00587004 -0.03831796
-0.066984214 0.25323498 0.08069275 -0.030884687 -0.15254009 0.05455469 -0.039863013 -0.105334185
0.07418892 0.005523706 0.06936004 0.043757197 0.041828826 -0.1846612 -0.025972925 -0.035539184
0.072938874 -0.06275275 0.13212498 -0.122652754 0.2519725 0.14143972 0.07947066 -0.012669156
0.05916768 0.07966004 -0.03550134 -0.023877047 0.15795113 0.0042197225 -0.19359365 -0.16755383
0.031315096 -0.043057755 -0.12800251 0.13395654 0.12791917 -0.040973723 -0.069487154 -0.047408503
0.0029685744 0.24448092 0.050249696 0.08449624 -0.11558703 0.061551537 0.22448099 0.15367909
-0.18625456 -0.010206335 0.030717226 0.046483226 -0.0881434 0.13757424 -0.05603978 -0.19134405
0.021568771 -0.080085576 0.008250313 0.056260657 -0.08402553 -0.07290278 -0.1964821 -0.016631017
-0.08590882 -0.00973981 -0.06362505 -0.052377056 -0.051665243 0.06331678 0.076309405 -0.15898468
0.04060038 -0.08208332 -0.07250749 -0.18918893 0.13781503 0.13527231 -0.011972179 -0.017364273
-0.074944615 0.19659956 -0.0777118 -0.059569627 -0.07656356 0.033143044 0.19399694 -0.23782189
-0.037646297 0.060294658 0.03436911 0.076767124 0.13882102 0.19848478 0.14567515 0.041659206
0.011079107 -0.054568138 0.012557757 0.060216878 -0.20202014 0.1748724 0.040952243 -0.058421616
0.1712438 0.0109102605 0.053940207 0.04361054 -0.009431165 -0.07916231 0.05232676 -0.16878282
-0.03780887 -0.038744222 0.03913631 0.10032517 0.0435564 -0.007212511 -0.13469705 0.092580654
0.004634071 0.1002303 -0.06521196 -0.21913502 -0.020785939 -0.07691626 -0.02434188 -0.026630607
-0.015710881 -0.2614491 -0.06856037 0.042005297 0.21257137 -0.03580304 0.09728004 -0.03566565
-0.047987193 0.0073416373 0.030091519 0.090059064 0.034141015 0.07493353 0.04381076 0.17127484
-0.06251725 0.025327286 -0.14917025 0.024733448 -0.19241172 -0.093763486 -0.10624468 0.09341026

net.2.bias f4 [2]
00000000: 983d 10bd ddaf 883c
-0.03521499 0.01668542
